checkpoint.pt (torch_old, 568184 bytes, 19 tensors)

layers.0.weight f4 [10]
0	0x3f70f2d1	0.9412051
1	0x3f66c708	0.9014745
2	0x3f4904b7	0.7852282
3	0x3f5c9124	0.86158967
4	0x3f528eeb	0.82249326
5	0x3f623fbf	0.8837852
6	0x3f88e1f7	1.0693959
7	0x3f98d45e	1.1939809
8	0x3f8a6e45	1.0814902
9	0x3f844e36	1.0336368

layers.0.bias f4 [10]
0	0xbb779e49	-0.0037783554
1	0x3e047c24	0.12937981
2	0xbde2bc3c	-0.11071059
3	0x3d31bbee	0.043392114
4	0x3d71bb89	0.059016738
5	0x3d3e9966	0.04653301
6	0x3d0f3ee8	0.0349721
7	0x3cb2ca8a	0.021825094
8	0xbc86ae7a	-0.016440619
9	0x3b9fa1af	0.004871569

layers.0.running_mean f4 [10]
0	0x3c286df9	0.010280126
1	0x3c2477b4	0.010038305
2	0x3c048b39	0.008089834
3	0xba3a08b7	-0.00070966355
4	0xbd16c11c	-0.036805257
5	0x3c400a71	0.011721239
6	0xbd098d07	-0.03358176
7	0xb922391f	-0.00015470803
8	0xbc9fb081	-0.019493343
9	0x3c2abb87	0.010420687

layers.0.running_var f4 [10]
0	0x3f86de07	1.0536507
1	0x3f86c447	1.0528649
2	0x3f7ac22b	0.97952527
3	0x3f683ef2	0.90721047
4	0x3f74308e	0.9538659
5	0x3f7655bc	0.9622457
6	0x3f7895bb	0.9710347
7	0x3f80fc6a	1.0077031
8	0x3f71e46b	0.94489163
9	0x3f8a2c3a	1.0794747

layers.2.linear.bias f4 [512]
0	0xbdd5bf77	-0.1043691
1	0x3e7c80f5	0.24658568
2	0x3d4fded9	0.050749633
3	0xbe957492	-0.291905
4	0x3dec0ae9	0.115255184
5	0xbe7a852a	-0.2446486
6	0x3af64013	0.0018787406
7	0xbe251323	-0.16120581
8	0x3d4fc941	0.05072904
9	0xbe4d313d	-0.20038314
10	0xbe88bfdc	-0.26708877
11	0xbe1760c9	-0.14783014
12	0xbe5de0e8	-0.21667826
13	0xbe2e546b	-0.1702439
14	0xbd47be8b	-0.0487657
15	0x3dce9e58	0.100887954
16	0xbe1b49de	-0.15164897
17	0x3d56f5a2	0.052480347
18	0xbd4e831a	-0.050417997
19	0x3e34f65f	0.17672108
20	0xbed513e9	-0.41616753
21	0x3d8acca6	0.06777315
22	0xbd2137cf	-0.039359864
23	0xbd55e38c	-0.05221896
24	0x3e37860a	0.17922226
25	0xbe1774cc	-0.14790648
26	0xbea57bcc	-0.32321012
27	0xbd910a76	-0.070820734
28	0xbeacd212	-0.3375402
29	0x3e807958	0.25092578
30	0xbea75c9a	-0.32687837
31	0xbe050bf5	-0.12992842
32	0x3eab0108	0.33399224
33	0xbe82d291	-0.25551274
34	0xbe1f6568	-0.15566027
35	0xbe7db1d6	-0.2477487
36	0xbe6af141	-0.22943594
37	0xbddbfb58	-0.107412994
38	0x3e8abf22	0.27098948
39	0xbd4c58e8	-0.049889475
40	0x3d3e51bf	0.046464678
41	0xbe96c02a	-0.29443485
42	0xbd783e91	-0.060606543
43	0xbe188ca2	-0.14897397
44	0xbe8eac27	-0.27865717
45	0xbe4dd940	-0.20102406
46	0xbdf3f8d8	-0.119126976
47	0xbdb336a1	-0.08750654
48	0xbdce5476	-0.100747034
49	0x3e063aef	0.13108419
50	0x3e63c3e1	0.2224269
51	0xbd4deb44	-0.050273195
52	0x3d943f7c	0.07238671
53	0x3e87d3d3	0.26528797
54	0xbe94f0ec	-0.2909006
55	0xbdf666f9	-0.12031359
56	0x3d2d9db7	0.042386737
57	0xbdde7537	-0.10862201
58	0xbe1d2e45	-0.15349682
59	0xbe4f9d35	-0.20274813
60	0x3e16c177	0.14722238
61	0xbde53d0a	-0.11193283
62	0xbda0dcd7	-0.07854622
63	0xbe9f2ebc	-0.31090343
64	0x3d14d5b6	0.036336623
65	0xbe61bf0d	-0.22045536
66	0xbe112359	-0.1417364
67	0xbd17df44	-0.037078157
68	0x3be1c4ae	0.006889901
69	0x3d427bec	0.047481462
70	0xbe7176b4	-0.23580438
71	0xbd031c59	-0.032009456
72	0xbebd3334	-0.36953127
73	0x3e575a60	0.21030569
74	0xbd702122	-0.058625348
75	0xbd1776f5	-0.03697868
76	0xbe866ce6	-0.26254958
77	0x3e439b74	0.1910227
78	0x3e25344a	0.16133228
79	0xbe47115d	-0.19440217
80	0xbc92a87a	-0.017902602
81	0xbea09418	-0.31362987
82	0xbe081583	-0.13289456
83	0x3de25075	0.11050502
84	0xbd5fd5f3	-0.054647397
85	0xbe41061a	-0.18849984
86	0x3e242cb1	0.16032673
87	0xbe80efd8	-0.25182986
88	0xbd58d797	-0.052939977
89	0xbea628f8	-0.32453132
90	0xbe7bdf68	-0.24596941
91	0xbde90956	-0.11378734
92	0xbd56d0a9	-0.052445088
93	0xbe5ae25a	-0.21375409
94	0x3e7699a5	0.24082048
95	0xbeb383fe	-0.3506164
96	0xbec73861	-0.389102
97	0x3e935f04	0.2878343
98	0x3daf6a93	0.08565249
99	0xbe6ab522	-0.22920659
100	0xbe6b045f	-0.22950886
101	0x3e18cc36	0.1492165
102	0x3d947ef8	0.0725078
103	0x3e6e4eb3	0.23272209
104	0x3db7e02d	0.08978305
105	0x3e34f41a	0.17671242
106	0xbe151878	-0.14560115
107	0xbcf81532	-0.030283544
108	0x3e02c144	0.12769037
109	0xbdcb6be0	-0.09932685
110	0x3e266362	0.16248849
111	0x3e7c5ce9	0.24644817
112	0xbe9d1e3e	-0.30687135
113	0xbe228dd2	-0.15874413
114	0x3e5edaad	0.21763106
115	0x3d48ee94	0.04905565
116	0xbdf5213c	-0.119692296
117	0xbe5aa830	-0.21353221
118	0x3e236ff8	0.15960681
119	0xbe09a963	-0.13443522
120	0x3e05a4b7	0.13051115
121	0xbe8cc8a9	-0.27496842
122	0xbd15f436	-0.03660985
123	0xbc0011f4	-0.00781678
124	0xbd72a752	-0.0592416
125	0x3d912082	0.070862785
126	0xbe414f18	-0.18877828
127	0xbd906243	-0.07049992
128	0x3e333ee3	0.17504458
129	0x3e1232e6	0.14277229
130	0x3e826ebf	0.25475118
131	0xbe6c64e4	-0.23085362
132	0xbe391917	-0.18075977
133	0xbd4feaec	-0.05076115
134	0xbeabdcb5	-0.33566824
135	0xbe82fed3	-0.2558504
136	0x3ddea186	0.10870652
137	0x3e2dda5e	0.16977832
138	0xbe68bd7f	-0.22728537
139	0xbda7eab6	-0.081990644
140	0xbeaef0ee	-0.3416819
141	0xbe2aad21	-0.16667606
142	0xbe961a81	-0.29317096
143	0xbec27a7b	-0.3798407
144	0xbe2d1bbc	-0.16905111
145	0x3e7efe8a	0.24901786
146	0xbd6c0e2b	-0.0576307
147	0x3de3cde8	0.11123258
148	0xbdb93cf5	-0.0904483
149	0x3cff4a80	0.031163454
150	0xbe0758a2	-0.13217404
151	0x3dfc6a7b	0.12324997
152	0x3d85ff82	0.06542875
153	0xbe4c04c5	-0.19923694
154	0xbc153f44	-0.009109322
155	0x3db08c34	0.086204916
156	0x3d870d4c	0.06594333
157	0xbce4e5fa	-0.027941693
158	0xbebe8bf8	-0.37216163
159	0xbe5ae596	-0.21376643
160	0x3e58201e	0.21106002
161	0x3d489a97	0.048975553
162	0xbda7138e	-0.08158027
163	0x3d11aaf7	0.035563435
164	0x3d95d33f	0.073156826
165	0x3bdcd7ae	0.006739578
166	0xbdae9eab	-0.08526357
167	0x3dbdc254	0.09265581
168	0xbe923e29	-0.2856305
169	0xbddaa372	-0.10675706
170	0x3e441938	0.19150245
171	0x3e877761	0.26458266
172	0xbe407bfd	-0.18797298
173	0x37b78617	2.187774e-05
174	0xbe6f745f	-0.23384236
175	0xbd30742d	-0.043079544
176	0x3e2ac937	0.1667832
177	0x3e5a0c99	0.21293868
178	0xbca2e60d	-0.019885087
179	0x3d57c593	0.052678656
180	0x3e8028ea	0.25031215
181	0xbdfcf1a1	-0.123507746
182	0xbda59837	-0.08085673
183	0x3e17fd60	0.14842749
184	0xbed56333	-0.41677245
185	0x3e128e68	0.14312136
186	0x3dae221b	0.08502599
187	0x3d9cfaa7	0.07664996
188	0xbdd5adbd	-0.104335286
189	0xbe9c4601	-0.3052216
190	0xbd04f341	-0.032458548
191	0xbe16fb40	-0.14744282
192	0x3e061b37	0.13096319
193	0x3c12c4ba	0.008958036
194	0xbe22f1a6	-0.15912494
195	0x3e5c567e	0.21517369
196	0xbe51520b	-0.20441453
197	0xbe6c1c4c	-0.2305767
198	0xbd4c0700	-0.049811363
199	0xbe715ed9	-0.23571338
200	0x3e7fdd62	0.24986795
201	0xbcdd7b6f	-0.027036397
202	0xbd87b9b2	-0.066272154
203	0xbe0f7356	-0.14008841
204	0xbd810a9c	-0.06300852
205	0xbe7093bb	-0.23493855
206	0xbcdb0447	-0.026735438
207	0xbe1e1c24	-0.15440422
208	0xbe9ec029	-0.31005982
209	0x3e80aece	0.25133365
210	0xbecd13a1	-0.40054038
211	0xbea9b5d1	-0.33146527
212	0xbe1ec229	-0.15503754
213	0xbe8e2cf3	-0.2776867
214	0xbe9ce7f4	-0.30645716
215	0xbe0f9126	-0.14020213
216	0xbea3a8b4	-0.31964648
217	0xbdea7d74	-0.114497095
218	0x3d9a8daa	0.075465515
219	0xbe25fb9f	-0.16209267
220	0xbe875274	-0.26430094
221	0xbea68a35	-0.3252732
222	0xbe668806	-0.22512826
223	0xbdab04ce	-0.08350526
224	0xbec930f9	-0.39295176
225	0xbe9d01ce	-0.3066544
226	0xbe310500	-0.17287064
227	0x3e026ee3	0.12737612
228	0x3e519ea3	0.20470671
229	0x3d146d91	0.036237303
230	0xbe441557	-0.19148766
231	0xbec997bc	-0.39373577
232	0x3ca53340	0.02016604
233	0x3ded184a	0.115768984
234	0xbe41c1fa	-0.18921652
235	0x3de169b9	0.11006493
236	0xbd79b5fa	-0.060964562
237	0x3daa088f	0.08302414
238	0xbe1b179d	-0.15145727
239	0xbbdda9b4	-0.006764615
240	0x3dbddb47	0.092703395
241	0xbeaaa0ac	-0.33325708
242	0x3d5fda28	0.05465141
243	0xbec08516	-0.37601537
244	0xbe7b3614	-0.24532348
245	0x3baebd33	0.005332613
246	0x3e3de629	0.1854483
247	0xbc0b5cc9	-0.008506008
248	0x3e439261	0.19098808
249	0x3e4d56b9	0.20052613
250	0x3dc9a78e	0.09846412
251	0xbc0fd1cd	-0.008778048
252	0xbe5985d0	-0.21242452
253	0xbd0599d0	-0.03261739
254	0x3e6aa116	0.22913012
255	0x3ebb5486	0.36587924

layers.2.linear.weight_g f4 [512, 1]
0	0x3ed21c28	0.41037107
1	0x3f0f8693	0.5606472
2	0x3ee41dd8	0.4455402
3	0x3eff1083	0.49817285
4	0x3ed996e8	0.42497945
5	0x3eebcdb8	0.46055388
6	0x3ea27f9d	0.31737986
7	0x3ec95d27	0.39328882
8	0x3efe2210	0.49635363
9	0x3f02966d	0.5101078
10	0x3f1d36a2	0.6141149
11	0x3f0d0a51	0.55093867
12	0x3ea658df	0.32489678
13	0x3ee3db48	0.44503236
14	0x3ea44867	0.3208649
15	0x3f151147	0.5822949
16	0x3edfa012	0.4367681
17	0x3f06f8bc	0.5272329
18	0x3ebfbe7b	0.37450013
19	0x3f12c925	0.5733817
20	0x3e9230c5	0.28552833
21	0x3f00f90e	0.5038003
22	0x3f17a78a	0.5924002
23	0x3ee359cf	0.44404456
24	0x3f0b3f49	0.5439344
25	0x3ed7d50c	0.4215473
26	0x3edbfcc4	0.42966282
27	0x3ebddc60	0.37082195
28	0x3f1045a7	0.5635628
29	0x3f202434	0.6255524
30	0x3ea0fb03	0.31441507
31	0x3e9bc4a8	0.30423474
32	0x3ebc1161	0.3673201
33	0x3f010807	0.50402874
34	0x3e90721d	0.28212062
35	0x3ee745e8	0.45170522
36	0x3eb68d84	0.35654843
37	0x3ea776a1	0.32707694
38	0x3ee9ba84	0.45650113
39	0x3eadd4de	0.33951467
40	0x3ed1a483	0.40945825
41	0x3eaa6215	0.33277956
42	0x3e9802c4	0.2968961
43	0x3ebacfdf	0.36486718
44	0x3ef4ccb0	0.47812414
45	0x3ed0eba1	0.4080477
46	0x3e15a909	0.14615263
47	0x3e965cb8	0.29367614
48	0x3edc3637	0.43010113
49	0x3eb8d1c0	0.36097527
50	0x3eef78b8	0.4677179
51	0x3eccca5f	0.39998147
52	0x3ee8299e	0.4534425
53	0x3f19b028	0.6003442
54	0x3f196969	0.5992647
55	0x3eca3a0c	0.3949741
56	0x3f0b3762	0.5438138
57	0x3e8d978f	0.27654693
58	0x3eb7a36f	0.35866877
59	0x3e9c3b7e	0.3051414
60	0x3f204e3f	0.62619394
61	0x3eb99b72	0.36251408
62	0x3ea32102	0.3186112
63	0x3f05f2a4	0.52323365
64	0x3f0e4e58	0.55588293
65	0x3eb1d72b	0.34734473
66	0x3ea1933e	0.3155765
67	0x3ec02ead	0.3753561
68	0x3ec5335c	0.38515747
69	0x3f188b49	0.5958753
70	0x3ee099e4	0.4386741
71	0x3e9a292d	0.3010954
72	0x3ed9e0bf	0.4255428
73	0x3f0b14f4	0.54328847
74	0x3e924061	0.28564742
75	0x3edc0bc1	0.42977718
76	0x3ef9828f	0.4873242
77	0x3f1f4bfd	0.62225324
78	0x3f24cdc4	0.64376473
79	0x3f0e4e07	0.5558781
80	0x3ea3c34a	0.3198493
81	0x3efc37b3	0.49261245
82	0x3ea50316	0.32228917
83	0x3eb6262d	0.35576
84	0x3ebbb5aa	0.36662036
85	0x3f164dcd	0.58712465
86	0x3eeea372	0.46609074
87	0x3ecbcb46	0.39803523
88	0x3ef5bf41	0.47997478
89	0x3ef4386d	0.476993
90	0x3f1260a5	0.5717872
91	0x3eb7bbcc	0.35885465
92	0x3e8730c2	0.26404387
93	0x3e87b5eb	0.2650598
94	0x3ef3c28d	0.47609368
95	0x3f1538f0	0.58290005
96	0x3ecef456	0.4042079
97	0x3eec47d5	0.46148553
98	0x3ede374a	0.43401557
99	0x3eeea18d	0.46607628
100	0x3eb63233	0.35585174
101	0x3f24d66b	0.64389676
102	0x3f189fa2	0.5961858
103	0x3ee1d6a6	0.44109076
104	0x3edd727a	0.432514
105	0x3f0f896a	0.5606905
106	0x3eab0946	0.33405513
107	0x3ed9cf0c	0.42540777
108	0x3f1eb327	0.61992115
109	0x3e36c060	0.17846823
110	0x3f140e57	0.5783438
111	0x3ee7ce6a	0.4527467
112	0x3eee9a18	0.4660194
113	0x3edf2d11	0.4358907
114	0x3ee2d049	0.44299534
115	0x3ee20267	0.44142458
116	0x3ef7ba1d	0.4838418
117	0x3f031b84	0.5121386
118	0x3f18b69f	0.5965366
119	0x3f0100c6	0.50391805
120	0x3f2c0ec5	0.67210037
121	0x3ef10667	0.47075197
122	0x3e964323	0.29348096
123	0x3ee60d32	0.44931942
124	0x3e2fbef4	0.17162687
125	0x3f1ea5db	0.61971825
126	0x3e59cee0	0.21270323
127	0x3ec95dbb	0.39329323
128	0x3f10118f	0.5627679
129	0x3f27c8cf	0.65540785
130	0x3f02bf9b	0.51073617
131	0x3ed1f2cd	0.41005555
132	0x3ef5e1fc	0.48023975
133	0x3ed2f700	0.4120407
134	0x3f254d44	0.64571023
135	0x3ef6ff9f	0.48241898
136	0x3f029314	0.51005673
137	0x3f1e34f5	0.61799556
138	0x3ebdbcaf	0.37058017
139	0x3f0bd8c3	0.5462763
140	0x3ec9a753	0.3938547
141	0x3f0c7cc2	0.54877865
142	0x3f102fb0	0.56322765
143	0x3ed88414	0.42288268
144	0x3f045dc1	0.5170556
145	0x3ed1a6f3	0.40947685
146	0x3eeea7e5	0.46612468
147	0x3f3395a9	0.7015024
148	0x3e90d13d	0.28284636
149	0x3f08752f	0.5330381
150	0x3ea8245f	0.3284025
151	0x3f15c1ee	0.5849904
152	0x3eed1ea3	0.46312436
153	0x3f027e23	0.5097372
154	0x3f0232a2	0.5085851
155	0x3ee09593	0.43864116
156	0x3ecf79be	0.4052257
157	0x3ec924c3	0.3928586
158	0x3f097157	0.5368857
159	0x3edeb486	0.43497103
160	0x3f089ce8	0.5336442
161	0x3ee3c8c0	0.44489098
162	0x3f08dbef	0.5346059
163	0x3f0c9fcb	0.54931325
164	0x3f164559	0.58699566
165	0x3ee12f19	0.43981245
166	0x3f01315d	0.5046595
167	0x3f2429c0	0.64126205
168	0x3ee57347	0.44814512
169	0x3f18f219	0.5974441
170	0x3f1b0455	0.60553485
171	0x3f074c2e	0.52850616
172	0x3ec44179	0.38331202
173	0x3ee72d4a	0.4515174
174	0x3f0a7ef4	0.54099965
175	0x3ec8aec8	0.39195848
176	0x3f25f915	0.64833194
177	0x3ec3f66b	0.3827394
178	0x3eaa9879	0.33319452
179	0x3f0f384b	0.5594527
180	0x3ef11e55	0.47093454
181	0x3ea8361e	0.32853788
182	0x3ed442de	0.41457266
183	0x3f10b31d	0.56523305
184	0x3eb5a8e2	0.3548041
185	0x3f0cb8fe	0.54969776
186	0x3ef43127	0.4769375
187	0x3f094ead	0.53635675
188	0x3eb326d8	0.34990573
189	0x3e8f8ed7	0.28038666
190	0x3f0a25c5	0.5396388
191	0x3f19d0c7	0.60084194
192	0x3f2c4905	0.6729892
193	0x3f0d0a54	0.55093884
194	0x3f052f72	0.5202552
195	0x3ef80fbd	0.48449507
196	0x3f0ae70a	0.5425879
197	0x3f060004	0.52343774
198	0x3ecde118	0.40210795
199	0x3ee2bd84	0.44285214
200	0x3f0ae015	0.5424817
201	0x3ec5a29b	0.3860062
202	0x3e94be14	0.29051268
203	0x3ec6ee3c	0.38853633
204	0x3e9feb60	0.31234264
205	0x3f14dbb0	0.58147717
206	0x3ed41bc5	0.41427436
207	0x3ebc114d	0.3673195
208	0x3ea571dc	0.3231343
209	0x3f01a408	0.50640917
210	0x3ee8df32	0.45482785
211	0x3ecea566	0.40360564
212	0x3ee7ccbf	0.45273396
213	0x3f0433ee	0.5164174
214	0x3ede1cf5	0.43381467
215	0x3f03542c	0.5130031
216	0x3f089e3e	0.5336646
217	0x3ecc67d4	0.39922965
218	0x3f2bb145	0.67067367
219	0x3eb159a9	0.34638718
220	0x3f019163	0.5061247
221	0x3ef359cf	0.47529456
222	0x3f0a7746	0.54088247
223	0x3ec37e3f	0.38182256
224	0x3ec69f5a	0.3879345
225	0x3e9ebf88	0.31005502
226	0x3f052bf2	0.5202018
227	0x3f02e78b	0.51134557
228	0x3f1678fe	0.5877837
229	0x3ef4da01	0.47822574
230	0x3f10e64c	0.56601405
231	0x3f0ee338	0.5581546
232	0x3ec8642a	0.3913892
233	0x3f0df932	0.55458367
234	0x3f1a1f31	0.60203844
235	0x3f1097f9	0.5648189
236	0x3efe14ab	0.49625143
237	0x3f215d12	0.6303264
238	0x3f26d353	0.65166205
239	0x3f253ac3	0.6454279
240	0x3f06415a	0.5244347
241	0x3ee3418b	0.44385943
242	0x3efa4809	0.48883083
243	0x3f04b42d	0.51837426
244	0x3ece1cd0	0.40256357
245	0x3ed6e517	0.41971657
246	0x3f378930	0.71693707
247	0x3ed134f7	0.4086072
248	0x3ed3b9a9	0.41352585
249	0x3efbe0f1	0.49195054
250	0x3f2585b4	0.6465714
251	0x3e970f7f	0.2950401
252	0x3ecf6510	0.40506792
253	0x3e7f1aba	0.24912539
254	0x3f06cebc	0.526592
255	0x3edb1d52	0.42795807

layers.2.linear.weight_v f4 [512, 10]
0	0x3c0c09d1	0.008547262
1	0x3e594b5e	0.21220157
2	0x3e824304	0.25441754
3	0x3d5b3116	0.05351361
4	0x3e3fb204	0.18720251
5	0xbe472f33	-0.19451599
6	0xbdd1d60d	-0.10245905
7	0xbd301c8d	-0.04299598
8	0x3d731001	0.059341434
9	0xbe3ebf2d	-0.18627615
10	0x3ce0abaf	0.027425615
11	0x3cf0babb	0.029385915
12	0xbe95d548	-0.29264283
13	0x3e87b1bd	0.2650279
14	0x3d0bb9e2	0.03411282
15	0x3e1ebe9e	0.15502402
16	0xbccfc172	-0.025360797
17	0xbe65b8f0	-0.2243383
18	0xbe97e81d	-0.29669276
19	0xbdb874a9	-0.09006626
20	0xbca67fa7	-0.020324541
21	0xbc5483df	-0.012970894
22	0xbe2a880d	-0.16653462
23	0x3e278de5	0.16362722
24	0x3d76d321	0.060259942
25	0xbe5aa983	-0.21353726
26	0x3e147665	0.14498289
27	0x3ec1759c	0.3778504
28	0xbd403e6e	-0.046934538
29	0xbe5a42c5	-0.21314533
30	0xbe85e708	-0.26152825
31	0x3e91471a	0.2837456
32	0xbc6bedca	-0.014399955
33	0x3d526582	0.051366337
34	0xbc6bf1ff	-0.014400958
35	0x3d55e98b	0.052224677
36	0xbebb6313	-0.36599025
37	0x3da64875	0.08119289
38	0x3e5e31f4	0.21698743
39	0x3debff43	0.11523297
40	0x3cf8b3c0	0.030359149
41	0x3e20df38	0.15710151
42	0x3d9ae232	0.075626746
43	0xbe77089a	-0.24124375
44	0x3e17cd4f	0.14824413
45	0xbe0d7a85	-0.13816269
46	0xbe4accec	-0.19804734
47	0x3dd22dba	0.10262628
48	0x3e4f74a0	0.20259333
49	0xbd7fdf2d	-0.062468696
50	0x3e26f269	0.1630341
51	0x3e45eac7	0.19327842
52	0xbd23e01e	-0.040008657
53	0x3df508e6	0.11964588
54	0x3d40f7fc	0.047111496
55	0xbe4452d4	-0.19172221
56	0xbe820cb9	-0.25400332
57	0x3e60d861	0.21957542
58	0xbe9b1e71	-0.30296662
59	0x3d1a536d	0.037677217
60	0x3e1befd0	0.152282
61	0x3e9d8cca	0.30771476
62	0xbdf125f0	-0.11774814
63	0x3e296e7e	0.16546056
64	0x3e62d1b7	0.22150312
65	0x3a275c76	0.0006384322
66	0xbe4b7a60	-0.19870901
67	0xbe9ae85d	-0.30255404
68	0x3e99d7aa	0.3004735
69	0xbdf6aca0	-0.12044644
70	0xbe57a94c	-0.21060675
71	0x3bf9bfe4	0.007621752
72	0xbbfc7d7a	-0.0077053877
73	0x3d9eb648	0.07749611
74	0xbe565a66	-0.20932922
75	0xbd545236	-0.051836215
76	0xbd170a7c	-0.036875233
77	0xbeb01ae3	-0.34395513
78	0x3d917be1	0.07103706
79	0x3e338c34	0.17533952
80	0x3da1a88b	0.07893475
81	0x3e7d7081	0.24749948
82	0x3cdf556d	0.027262414
83	0xbe4d9708	-0.20077145
84	0xbe1df9ea	-0.15427366
85	0xbc1c5b4d	-0.009543252
86	0x3e2625e5	0.16225393
87	0x3ec047b5	0.37554708
88	0x3b473a5b	0.0030399773
89	0xbdd535bc	-0.1041064
90	0x3e81b58a	0.25333816
91	0xbdfbbc16	-0.12291734
92	0xbe1dccb1	-0.15410115
93	0x3e47af0d	0.1950037
94	0xbe95d587	-0.2926447
95	0xbe791f38	-0.24328315
96	0x3e93fe36	0.28904885
97	0x3d094ae0	0.033518672
98	0xbdfd300a	-0.12362678
99	0xbd83dddc	-0.06438801
100	0x3e3f6c2c	0.18693608
101	0x3cf71bde	0.030164655
102	0x3e686ee9	0.22698559
103	0xbe00cb93	-0.12577657
104	0xbe3d2cdc	-0.18474144
105	0xbe8a8b6e	-0.270595
106	0xbe8a8be5	-0.27059856
107	0xbe2fe10d	-0.17175694
108	0xbe91519e	-0.2838258
109	0xbe7d9f56	-0.24767813
110	0xbddd5387	-0.10806947
111	0x3e918aec	0.284263
112	0xbcc2ab39	-0.023763286
113	0xbe44b324	-0.19208962
114	0x3eab92d3	0.33510455
115	0x3e5483c8	0.20753396
116	0xbe5981cd	-0.21240921
117	0x3e92aa4f	0.2864556
118	0xbc102564	-0.008797977
119	0xbe5b3c8e	-0.21409819
120	0xbe702cb4	-0.23454553
121	0xbe646349	-0.223035
122	0x3d5133fd	0.05107497
123	0x3d88cc08	0.06679541
124	0x3db3656d	0.0875958
125	0xbe00b081	-0.12567331
126	0x3e41a6ed	0.18911333
127	0xbe989fe9	-0.29809502
128	0x3ddca229	0.10773117
129	0x3c500138	0.012695603
130	0xbc84ca92	-0.016209874
131	0x3e1f6d30	0.15568995
132	0xbd591f38	-0.05300829
133	0x3e63c0c0	0.22241497
134	0x3e79a01a	0.2437748
135	0x3e81b546	0.25333613
136	0xbefd40d7	-0.4946353
137	0x3dff9a62	0.12480618
138	0xbd572f98	-0.052535623
139	0x3dcea79a	0.10090561
140	0xbe874435	-0.26419225
141	0xbe824ac3	-0.25447664
142	0x3e72e246	0.23719129
143	0x3e377d6c	0.17918938
144	0x3c579a82	0.013159396
145	0x3ddd6545	0.10810331
146	0xbab23427	-0.0013595865
147	0xbea067a8	-0.31329083
148	0xbe41530a	-0.18879333
149	0x3ea68060	0.32519817
150	0xbe8dbc7c	-0.27682865
151	0x3ddbe35b	0.10736724
152	0xbdbe250c	-0.0928441
153	0xbe770a16	-0.24124941
154	0x3e950ba7	0.29110453
155	0xbd086571	-0.033299867
156	0xbe96fb48	-0.29488587
157	0x3d566434	0.052341655
158	0xbe16cb5a	-0.1472601
159	0xbe34277c	-0.17593187
160	0xbdf2b38a	-0.118506506
161	0x3e85e1ee	0.26148933
162	0x3da464aa	0.08027013
163	0x3bc6196e	0.006045512
164	0x3d35a2bd	0.044344652
165	0x3d0db6cb	0.034598153
166	0x3cff467f	0.031161545
167	0xbeaaed54	-0.33384192
168	0x3dfd3dda	0.12365313
169	0x3e9fd43d	0.31216612
170	0x3e76f45d	0.24116655
171	0xbda39d9e	-0.079890475
172	0x3e52ac19	0.20573463
173	0x3b84e105	0.0040551447
174	0x3db017e8	0.0859831
175	0xbda46eae	-0.08028923
176	0x3e680b54	0.22660571
177	0x3e62ddfd	0.22154994
178	0xbe905d03	-0.28195962
179	0x3e0310b8	0.12799346
180	0xbec2be8f	-0.3803601
181	0xbe08aa4f	-0.13346218
182	0x3e3960c6	0.18103322
183	0x3d8f4985	0.069964446
184	0xbe12f6c2	-0.14351943
185	0x3e09c643	0.13454537
186	0x3e98bcc4	0.29831517
187	0x3e932acc	0.2874359
188	0x3b4ad64f	0.0030950492
189	0x3daca7d0	0.08430445
190	0x3ea3a90d	0.31964913
191	0x3e1acd9d	0.15117498
192	0x3e8bc2ce	0.27297062
193	0x3e937755	0.2880198
194	0xbe6b507e	-0.22979924
195	0xbe5fe054	-0.21862918
196	0x3e49f9ca	0.19724193
197	0xbd4a70ee	-0.049424104
198	0x3e153113	0.14569502
199	0x3e2f8749	0.17141451
200	0xbdfe103d	-0.12405441
201	0x3e22223e	0.15833375
202	0xbdb479b6	-0.08812277
203	0x3d0d3ed6	0.034483753
204	0x3e90d22f	0.28285357
205	0x3e60ab0e	0.21940252
206	0xbe474c3a	-0.19462672
207	0x3e0e419f	0.1389222
208	0xbe1eb083	-0.15497021
209	0x3d69ecb8	0.05711052
210	0x3e8a5992	0.27021462
211	0x3c38d335	0.011280824
212	0x3d55af03	0.052168857
213	0xbe6edf15	-0.23327287
214	0x3d064977	0.032784905
215	0xbe6d5a84	-0.2317906
216	0xbe0c8fd7	-0.13726746
217	0xbe8fc1a6	-0.2807743
218	0xbd3c7525	-0.046010155
219	0xbe8cfb15	-0.2753531
220	0xbe19e8a5	-0.15030153
221	0x3e905034	0.2818619
222	0x3dd534eb	0.10410484
223	0x3ccb3dea	0.024809796
224	0xbd964ba0	-0.07338643
225	0xbcf7a1fe	-0.030228611
226	0xbe0e7b9f	-0.13914345
227	0xbeabeba6	-0.33578223
228	0xbe928171	-0.2861438
229	0xbe427289	-0.18989004
230	0xbdf874b7	-0.121316366
231	0xbea6e968	-0.3259995
232	0x3ddc549e	0.10758327
233	0x3e3d205d	0.18469377
234	0x3e7c1da3	0.2462068
235	0x3e1ee37a	0.15516463
236	0xbdc03c28	-0.09386474
237	0xbc5320f9	-0.012886279
238	0x3d095888	0.033531696
239	0xbeb966fb	-0.3621138
240	0xbd3c6ce1	-0.046002273
241	0xbe80e9f3	-0.2517849
242	0x3c92ab38	0.01790391
243	0x3db4f461	0.08835674
244	0xbd0f85b2	-0.03503961
245	0x3e11c4f7	0.14235292
246	0xbe8e8dd9	-0.27842596
247	0xbc537d05	-0.012908225
248	0x3e850b7b	0.2598532
249	0x3e72382d	0.23654242
250	0x3e899d4f	0.2687783
251	0x3e2732bc	0.16327947
252	0xba02ac4c	-0.00049847807
253	0xbe392361	-0.18079902
254	0x3deafb1f	0.11473679
255	0x3ce95b82	0.028486017

layers.2.batchnorm.weight f4 [512]
0	0x3f68b5ba	0.9090229
1	0x3f56d7db	0.8392312
2	0x3f5d0930	0.86342144
3	0x3f95e725	1.1711165
4	0x3f61cb49	0.88200814
5	0x3f66d652	0.90170777
6	0x3f5acd87	0.8546986
7	0x3f7e035a	0.99223864
8	0x3f71d513	0.9446575
9	0x3f7a7eea	0.97849905
10	0x3f7d78c5	0.99012405
11	0x3f7aa00a	0.9790045
12	0x3f78a63e	0.97128665
13	0x3f71aa3b	0.94400376
14	0x3f5eceda	0.8703438
15	0x3f4268a5	0.75940925
16	0x3f74bbce	0.9559907
17	0x3f5ffdfd	0.8749693
18	0x3f500c75	0.8126901
19	0x3f52092a	0.82045233
20	0x3f951eb6	1.1649997
21	0x3f5c85c9	0.8614164
22	0x3f837ff8	1.0273428
23	0x3f69575a	0.9114891
24	0x3f5fa33b	0.87358445
25	0x3f6c8203	0.9238588
26	0x3f5f351f	0.8719043
27	0x3f693684	0.9109881
28	0x3f822c1a	1.0169709
29	0x3f5e22b2	0.8677169
30	0x3f89aafd	1.0755306
31	0x3f6d5eaf	0.927226
32	0x3f398f71	0.724845
33	0x3f8225a4	1.0167737
34	0x3f7fe93a	0.9996525
35	0x3f71750d	0.9431923
36	0x3f7ca1aa	0.9868418
37	0x3f95fa0e	1.1716936
38	0x3f3ebab1	0.7450362
39	0x3f5bd87b	0.858772
40	0x3f5ca647	0.8619122
41	0x3f6bb37d	0.9207075
42	0x3f8031b8	1.0015173
43	0x3f78d20f	0.97195524
44	0x3f866274	1.0498796
45	0x3f8b8b57	1.0901898
46	0x3f5e86a7	0.86924213
47	0x3f59ea16	0.8512281
48	0x3f6eee28	0.9333215
49	0x3f455d6b	0.7709567
50	0x3f5fb2f6	0.8738245
51	0x3f736a5b	0.9508416
52	0x3f507fe0	0.8144512
53	0x3f527745	0.8221324
54	0x3f8ec571	1.1154004
55	0x3f75a6ca	0.95957625
56	0x3f544a23	0.82925624
57	0x3f811c29	1.0086719
58	0x3f6c6063	0.92334574
59	0x3f59af74	0.85033345
60	0x3f7e1959	0.9925743
61	0x3f6b5742	0.9193002
62	0x3f6d4b17	0.92692703
63	0x3f6743d6	0.90337884
64	0x3f6f6704	0.93516564
65	0x3f85e81b	1.0461458
66	0x3f860e91	1.0473195
67	0x3f70e69f	0.941019
68	0x3f73164f	0.94955915
69	0x3f6565c9	0.89608437
70	0x3f6cd843	0.9251749
71	0x3f58cba9	0.8468576
72	0x3f841f43	1.032204
73	0x3f7c7b58	0.9862571
74	0x3f61ecae	0.8825177
75	0x3f5dbd74	0.8661721
76	0x3f712d39	0.9420963
77	0x3f68ac42	0.90887845
78	0x3f6b5940	0.9193306
79	0x3f5b1b18	0.85588217
80	0x3f57f9e7	0.84365696
81	0x3f711d0e	0.9418496
82	0x3f7766f6	0.9664148
83	0x3f570795	0.83995944
84	0x3f68b6a7	0.90903705
85	0x3f7d4aec	0.98942447
86	0x3f4620ea	0.7739397
87	0x3f696cbd	0.91181546
88	0x3f575fba	0.8413044
89	0x3f7d5dec	0.9897144
90	0x3f85ff92	1.0468619
91	0x3f71095f	0.94154924
92	0x3f8140f9	1.0097953
93	0x3f963a4d	1.1736542
94	0x3f5307c0	0.824337
95	0x3f8b1b58	1.086772
96	0x3f7d9acf	0.99064344
97	0x3f45e97a	0.7730938
98	0x3f4ccc1b	0.7999894
99	0x3f781ff1	0.9692374
100	0x3f879b5a	1.0594285
101	0x3f59f1da	0.8513466
102	0x3f708fc7	0.93969387
103	0x3f4f8e62	0.81076634
104	0x3f61f027	0.8825707
105	0x3f6622eb	0.8989703
106	0x3f588d06	0.84590185
107	0x3f5b5fa0	0.8569279
108	0x3f5514f2	0.83235085
109	0x3f4fc524	0.8116019
110	0x3f53f76e	0.8279942
111	0x3f51c4d9	0.8194099
112	0x3f84c499	1.0372497
113	0x3f871e76	1.0556171
114	0x3f54ce92	0.831277
115	0x3f64efcc	0.894284
116	0x3f81aba7	1.0130509
117	0x3f7ac403	0.9795534
118	0x3f6377a1	0.88854414
119	0x3f66a6fa	0.90098536
120	0x3f680b6f	0.90642446
121	0x3f8dc074	1.1074357
122	0x3f70ce04	0.94064355
123	0x3f82121d	1.0161778
124	0x3f625739	0.8841434
125	0x3f4d90a9	0.8029886
126	0x3f8a8d75	1.0824419
127	0x3f62676f	0.8843908
128	0x3f41e0a5	0.75733405
129	0x3f633022	0.8874532
130	0x3f59a888	0.85022783
131	0x3f7d665d	0.9898432
132	0x3f6e6a62	0.9313108
133	0x3f6494b4	0.892894
134	0x3f6d89b2	0.9278823
135	0x3f76e79b	0.9644715
136	0x3f5d626d	0.8647831
137	0x3f6a54df	0.91535753
138	0x3f64c958	0.89369726
139	0x3f74d3da	0.9563576
140	0x3f86ce64	1.0531735
141	0x3f77c988	0.9679189
142	0x3f82495c	1.0178638
143	0x3fa0632b	1.2530264
144	0x3f892f7f	1.071762
145	0x3f4f0db5	0.8088029
146	0x3f657424	0.8963034
147	0x3f6027ad	0.8756054
148	0x3f7b52df	0.98173326
149	0x3f5fc980	0.8741684
150	0x3f66ba7d	0.9012831
151	0x3f75ea87	0.96060985
152	0x3f51ab84	0.8190234
153	0x3f62c166	0.8857635
154	0x3f5948e4	0.8487685
155	0x3f51e86b	0.81995267
156	0x3f529f99	0.82274777
157	0x3f4e0357	0.80473846
158	0x3f742a31	0.9537688
159	0x3f8709cb	1.0549864
160	0x3f3e7f4d	0.74412996
161	0x3f5b8e68	0.8576417
162	0x3f848231	1.0352231
163	0x3f6e71b7	0.93142265
164	0x3f704b21	0.9386464
165	0x3f72f0c2	0.9489862
166	0x3f6dc8c9	0.928845
167	0x3f4c7a46	0.79874074
168	0x3f7c1a07	0.98477215
169	0x3f6f8195	0.935571
170	0x3f6ae663	0.9175779
171	0x3f67cb05	0.9054416
172	0x3f7019b2	0.9378921
173	0x3f5bf905	0.8592685
174	0x3f58d2ba	0.84696543
175	0x3f53e4d4	0.8277104
176	0x3f5a6766	0.85314023
177	0x3f68fd44	0.9101145
178	0x3f55f9e0	0.83584404
179	0x3f62588a	0.8841635
180	0x3f5507cc	0.8321502
181	0x3f817ff6	1.0117176
182	0x3f5e4d3b	0.86836594
183	0x3f5b7a63	0.8573362
184	0x3f7a79fd	0.9784239
185	0x3f537fb7	0.8261675
186	0x3f4c6500	0.79841614
187	0x3f695d9b	0.91158456
188	0x3f8a77a8	1.0817766
189	0x3f9016ae	1.1256921
190	0x3f679f02	0.90477
191	0x3f54406d	0.82910806
192	0x3f6c0129	0.9218927
193	0x3f6c8ccd	0.92402345
194	0x3f7d7326	0.9900383
195	0x3f5dbbed	0.86614877
196	0x3f88cbe2	1.068722
197	0x3f76cf97	0.96410507
198	0x3f5f427f	0.8721084
199	0x3f89b09b	1.0757021
200	0x3f56e28e	0.83939445
201	0x3f6610d3	0.8986942
202	0x3f5b745c	0.85724425
203	0x3f7a5d8f	0.9779901
204	0x3f728944	0.947407
205	0x3f7043a7	0.9385323
206	0x3f80bdd1	1.0057927
207	0x3f85db92	1.0457633
208	0x3f83fc2a	1.0311329
209	0x3f5598ea	0.83436453
210	0x3f86672c	1.0500236
211	0x3f85fdb6	1.0468051
212	0x3f83badb	1.0291399
213	0x3f76b8ea	0.96375906
214	0x3f8b4c12	1.088259
215	0x3f77c2f2	0.9678184
216	0x3f87d67b	1.0612329
217	0x3f5c3637	0.86020225
218	0x3f663f07	0.8993992
219	0x3f6078e2	0.8768445
220	0x3f743936	0.95399797
221	0x3f7ca37f	0.98686975
222	0x3f85928f	1.0435351
223	0x3f7d4479	0.98932606
224	0x3f7047b8	0.93859434
225	0x3fa19e97	1.2626523
226	0x3f68ba43	0.9090921
227	0x3f680ed7	0.90647644
228	0x3f51a7df	0.81896776
229	0x3f3a8628	0.72860956
230	0x3f582071	0.844245
231	0x3f83ae5b	1.0287584
232	0x3f550372	0.8320838
233	0x3f75c11f	0.95997804
234	0x3f715b39	0.9427982
235	0x3f726652	0.9468738
236	0x3f5a6a70	0.8531866
237	0x3f5895ff	0.84603876
238	0x3f726f56	0.94701135
239	0x3f77bd30	0.9677305
240	0x3f5691dc	0.83816314
241	0x3f8bc425	1.0919234
242	0x3f50f89f	0.81629366
243	0x3f7854f3	0.9700462
244	0x3f93a6ec	1.1535316
245	0x3f76786e	0.9627751
246	0x3f61aedc	0.8815744
247	0x3f5c1166	0.8596405
248	0x3f4b4db7	0.7941546
249	0x3f70a267	0.93997806
250	0x3f839aa6	1.028157
251	0x3f5558d4	0.83338666
252	0x3f634789	0.8878103
253	0x3f6a2d86	0.91475713
254	0x3f521b94	0.8207333
255	0x3f4378e2	0.7635633

layers.2.batchnorm.bias f4 [512]
0	0xbc5938e6	-0.013258195
1	0x3d8dfa93	0.06932559
2	0x3cf64cb7	0.030065877
3	0x3d923540	0.07139063
4	0x3dd324a4	0.10309723
5	0x3df55eff	0.1198101
6	0xbc0e089c	-0.008669045
7	0x3e51b783	0.2048016
8	0x3df7966f	0.1208924
9	0x3d4fab87	0.05070069
10	0x3e3e2888	0.18570149
11	0x3e50f9a0	0.20407724
12	0x3c834435	0.016023735
13	0x3dff5fbc	0.12469432
14	0x3e28cd7b	0.16484635
15	0x3ccca5b8	0.024981365
16	0xbd032717	-0.0320197
17	0x3c9929ed	0.01869675
18	0x3e1845f8	0.14870441
19	0xbbd5492c	-0.006508967
20	0x3d98016e	0.07422148
21	0xbd9f8f67	-0.07791024
22	0x3dc421f4	0.095767885
23	0x3e79462b	0.24343173
24	0xbc86ef2c	-0.016471468
25	0x3c00a97a	0.007852906
26	0x3dabe942	0.083941
27	0xbd18d3c2	-0.037311323
28	0x3c6005c7	0.013673252
29	0x3d4363aa	0.04770247
30	0x3e065fe4	0.13122517
31	0x3d4c163c	0.04982589
32	0x3c785758	0.015157543
33	0x3dc96f3f	0.09835672
34	0x3dc1e481	0.09467412
35	0x3e581dce	0.2110512
36	0x3df0daaf	0.117604606
37	0x3dd5499b	0.1041443
38	0xbd4a48b5	-0.049385745
39	0x3db4d80f	0.088302724
40	0x3d8d13e9	0.06888563
41	0x3d46bfc8	0.04852274
42	0x3d4e7f4c	0.05041437
43	0x3e21021d	0.15723462
44	0x3e7a1518	0.24422109
45	0x3e07dcc3	0.13267808
46	0x3d3fb2d9	0.04680142
47	0x3e115761	0.14193489
48	0x3dd8d2ba	0.10587068
49	0xbc55feda	-0.01306125
50	0x3d2f353f	0.04277539
51	0x3c4266fe	0.011865376
52	0xbc5efd2b	-0.013610165
53	0x3e63af6f	0.22234891
54	0xbde77474	-0.113015085
55	0x3dfe0f44	0.124052554
56	0xbda943f2	-0.08264913
57	0x3d17ef53	0.03709347
58	0x3c2a6595	0.010400196
59	0x3d44279d	0.04788934
60	0x3d945e78	0.07244581
61	0xbb1eb854	-0.0024218755
62	0x3d839249	0.06424386
63	0xbc1d2061	-0.009590239
64	0x3d969530	0.07352674
65	0x3e20d83e	0.1570749
66	0x3ba91f9a	0.005161238
67	0x3dddd830	0.1083225
68	0x3b8dbd46	0.0043255417
69	0x3e770584	0.24123198
70	0x3d31315c	0.043259963
71	0x3e0b69da	0.13614598
72	0x3dca54af	0.09879433
73	0x3dc899b9	0.09794945
74	0x3db2f99c	0.087390155
75	0x3e387782	0.18014339
76	0x3d176d1b	0.036969285
77	0x3dbca949	0.09211976
78	0x3e368893	0.17825536
79	0x3e307f97	0.17236172
80	0x3d45ca17	0.04828843
81	0x3d3bb5ed	0.045827795
82	0x3cb4d57b	0.022074452
83	0xbb639a5c	-0.0034729457
84	0x3d54a0fe	0.051911347
85	0x3d7ac9b2	0.061227508
86	0x3e8c5a11	0.27412465
87	0x3e03991f	0.1285138
88	0xbd7e256c	-0.062047407
89	0x3e203c28	0.15647948
90	0x3dcc9652	0.09989609
91	0x3e002865	0.1251541
92	0x3e9a8475	0.30179182
93	0x3d77c0a5	0.060486455
94	0x3d08cd80	0.033399105
95	0x3e257ffe	0.16162106
96	0x3da53b64	0.080679685
97	0xbd9a26c8	-0.07526928
98	0x3e86beb9	0.26317385
99	0xbd34f650	-0.044180214
100	0x3e3c93eb	0.18415801
101	0x3e1c5293	0.15265875
102	0x3dc8a0ab	0.0979627
103	0xbd0f9b5a	-0.035060264
104	0x3cee9c58	0.029127285
105	0xbd1c532d	-0.03816526
106	0x3d3b881c	0.0457841
107	0x3e0a5870	0.13510299
108	0x3e4b1fe4	0.19836384
109	0xbdb8ae1c	-0.09017584
110	0xbdf58e0e	-0.119899854
111	0xbd60eb0d	-0.054911662
112	0x3e0e3dc0	0.13890743
113	0x3c17b650	0.009259775
114	0xbb30b7af	-0.0026964953
115	0x3c2eb6fb	0.010663743
116	0x3cfae2ed	0.030625785
117	0x3d87a82d	0.06623874
118	0x3e05f960	0.1308341
119	0x3dae00a7	0.08496218
120	0x3dfa9f2b	0.1223739
121	0x3d93bd54	0.07213846
122	0x3e4bb024	0.19891411
123	0x3e40a75c	0.18813843
124	0xbd81d46c	-0.063393444
125	0x3e11da3b	0.14243405
126	0x3d7e5a68	0.062097937
127	0x3e1b397f	0.15158652
128	0xbddb0b07	-0.10695463
129	0xbd55f210	-0.052232802
130	0x3e710df5	0.2354048
131	0xbd018ef0	-0.031630456
132	0x3ddfb87f	0.10923862
133	0x3d4cce2d	0.050001312
134	0x3dfcc747	0.12342697
135	0x3d1580c6	0.03649976
136	0xbcc80b3c	-0.02441942
137	0x3e4889c9	0.19583811
138	0x3e2af142	0.16693595
139	0x3d6ac9e1	0.057321433
140	0x3e5ac10d	0.21362706
141	0x3d60ccbf	0.05488276
142	0x3dd36d73	0.1032361
143	0x3de88d39	0.11355061
144	0xbccda421	-0.025102677
145	0x3d9e96eb	0.07743629
146	0x3d0d4758	0.034491867
147	0x3dc953ba	0.09830423
148	0x3c89ef2e	0.016837683
149	0x3e46256d	0.19350214
150	0x3d3121b8	0.043245047
151	0x3ddb8210	0.10718167
152	0x3d874486	0.06604867
153	0x3daa50e0	0.08316207
154	0x3dfef730	0.12449491
155	0x3d294c1f	0.04133236
156	0x3dd5cd74	0.10439578
157	0x3d371102	0.044693954
158	0xbda63de1	-0.08117271
159	0x3d0e65c2	0.034765013
160	0xbe03d941	-0.12875845
161	0x3ce49e72	0.027907584
162	0x3e16001c	0.14648479
163	0x3ddb07a5	0.106948175
164	0x3d74b5af	0.05974358
165	0x3e240d38	0.16020668
166	0x3dbd7bf1	0.092521556
167	0x3b876356	0.004131715
168	0x3df351e4	0.11880854
169	0x3cb4e3d1	0.022081288
170	0x3e13efc8	0.14446938
171	0x3dda9c48	0.106743395
172	0x3dcac8c8	0.09901577
173	0x3df2dee9	0.11858923
174	0x3d61d2d2	0.055132695
175	0x3dba5977	0.09099095
176	0x3da45c66	0.08025436
177	0x3dc3d931	0.0956291
178	0xbc5cba7f	-0.0134721985
179	0x3e69a9d7	0.22818695
180	0x3d78d3e3	0.060748946
181	0x3d807628	0.062725365
182	0x3d09e75a	0.0336679
183	0x3d8a1178	0.06741613
184	0x3de08aa6	0.10963945
185	0xbd0b48d2	-0.034004994
186	0x3e09fc21	0.13475086
187	0x3db35f89	0.08758456
188	0x3e0c363f	0.13692568
189	0x3d954c94	0.07289997
190	0xbaf85cf4	-0.0018948601
191	0x3dc92f72	0.098235026
192	0x3df92691	0.12165559
193	0x3d831b69	0.064017124
194	0x3dd06b7f	0.10176753
195	0x3c34a2f7	0.011025182
196	0x3d9dcbc0	0.07704878
197	0x3d687787	0.056754615
198	0x3d6f970a	0.05849365
199	0x3da6cef1	0.0814494
200	0x3cc040e7	0.023468448
201	0x3e1369af	0.14395784
202	0xbbab8b64	-0.0052351225
203	0x3dcaf7f0	0.099105716
204	0x3d753120	0.059861302
205	0x3d35de84	0.04440166
206	0x3e7969ae	0.2435672
207	0x3c57187a	0.013128394
208	0x3e1d07d3	0.15335016
209	0xbd9d085c	-0.0766761
210	0x3d6631d5	0.056199867
211	0x3d4b3125	0.049607415
212	0x3d08e6db	0.033423286
213	0xbcaa4199	-0.020783233
214	0x3e3a879c	0.18215793
215	0xbb23e253	-0.0025006726
216	0x3e04942d	0.1294715
217	0x3dec4432	0.11536445
218	0xbd3f0452	-0.04663498
219	0xbcd8ce8e	-0.02646568
220	0xbccd1cd7	-0.025038166
221	0x3da47bc3	0.08031418
222	0x3d097340	0.033557177
223	0x3de28fa8	0.110625565
224	0x3e004af5	0.12528594
225	0x3d8e6cf9	0.06954379
226	0x3c5da67d	0.013528463
227	0x3dc088f3	0.09401121
228	0x3e874348	0.2641852
229	0xbe44a6b8	-0.19204223
230	0x3e197487	0.14985858
231	0x3d13d0fa	0.036087967
232	0x3cb86f4e	0.022514012
233	0x3c7aad96	0.015300175
234	0x3dbb9dd8	0.09160966
235	0x3e2fd6c3	0.17171769
236	0xbd78cfd7	-0.060745087
237	0xbc219cad	-0.009864015
238	0x3b66b325	0.0035201993
239	0x3e2475db	0.16060583
240	0x3db3a73c	0.08772132
241	0x3bdcd617	0.0067393887
242	0x3e2088b3	0.15677147
243	0x3e2ffeb8	0.17187011
244	0x3d28d51b	0.04121886
245	0x3d95046d	0.07276235
246	0x3de042aa	0.10950215
247	0x3c258dbe	0.010104595
248	0xbd8eea5c	-0.06978294
249	0x3e15f944	0.14645869
250	0x3dd6694f	0.10469305
251	0x3d8e9100	0.0696125
252	0x3dbc85c2	0.092052
253	0x3d08123e	0.033220522
254	0x3e2e9a44	0.17051035
255	0x3d91fb62	0.071280256

layers.2.batchnorm.running_mean f4 [512]
0	0x3daf1f7e	0.085509285
1	0x3ec21a0d	0.379105
2	0x3e6f26fc	0.23354715
3	0x3d4f76e6	0.0506505
4	0x3e8fdbca	0.28097373
5	0x3ddabf28	0.106809914
6	0x3e09c873	0.13455372
7	0x3dce96cb	0.10087355
8	0x3e77e09b	0.24206774
9	0x3d89bae6	0.06725101
10	0x3d9161d6	0.07098739
11	0x3e257d4f	0.16161083
12	0x3d7400c3	0.05957104
13	0x3dd13104	0.10214427
14	0x3e0f13ec	0.13972443
15	0x3e9042da	0.28176004
16	0x3dde4068	0.10852128
17	0x3e53577e	0.20638844
18	0x3e00e0ca	0.1258575
19	0x3e8acef4	0.27111018
20	0x39e859e3	0.0004431746
21	0x3e4b0603	0.19826512
22	0x3e4554de	0.19270656
23	0x3def61db	0.11688586
24	0x3e8d7a46	0.2763235
25	0x3dee4cb6	0.11635725
26	0x3d9b76cb	0.07591017
27	0x3dd1d124	0.102449685
28	0x3d7073a8	0.05870405
29	0x3ea3f20a	0.320206
30	0x3cdf4e7f	0.02725911
31	0x3d7b342c	0.06132905
32	0x3eaa5cbc	0.33273876
33	0x3da555b2	0.08072986
34	0x3cc40e07	0.02393247
35	0x3d81f26a	0.06345065
36	0x3d4247ea	0.047431864
37	0x3d21defd	0.0395193
38	0x3ec89c1f	0.3918161
39	0x3dfa1131	0.1221031
40	0x3e2fb108	0.17157376
41	0x3ccc3244	0.024926312
42	0x3da2daab	0.07951864
43	0x3d458608	0.048223525
44	0x3d9a9071	0.07547081
45	0x3d15efcf	0.036605652
46	0x3cad6d38	0.021170244
47	0x3d8a2299	0.0674488
48	0x3dd3c0ee	0.10339533
49	0x3e7fe6af	0.24990343
50	0x3e8d767e	0.27629465
51	0x3dc0f7ce	0.09422265
52	0x3e42f2b5	0.19037898
53	0x3eaf46b8	0.34233642
54	0x3d02db3a	0.031947352
55	0x3db3b48d	0.08774672
56	0x3e21fff3	0.15820293
57	0x3ca34243	0.019929057
58	0x3d508cb4	0.050915435
59	0x3da67439	0.081276365
60	0x3e797ce0	0.24364042
61	0x3da3b606	0.079937026
62	0x3de9b8c2	0.11412193
63	0x3d7f50b2	0.062332816
64	0x3e3bed4c	0.1835224
65	0x3d1f35ee	0.03886979
66	0x3d81cc89	0.0633784
67	0x3e1232a8	0.14277136
68	0x3de2a5e0	0.110667944
69	0x3e9a3f33	0.30126342
70	0x3d6341c4	0.05548264
71	0x3de6bee3	0.112668775
72	0x3d6f8683	0.05847789
73	0x3e979d28	0.29612088
74	0x3d9e9b25	0.07744435
75	0x3e27675a	0.16348019
76	0x3d815347	0.06314712
77	0x3eaf37bc	0.3422221
78	0x3e9218c5	0.28534523
79	0x3e1248a5	0.14285524
80	0x3e063648	0.13106644
81	0x3e0addbf	0.13561152
82	0x3d235345	0.039874334
83	0x3e2ca8fe	0.1686134
84	0x3dd76f5e	0.105192885
85	0x3d86a520	0.06574464
86	0x3e88abb1	0.2669349
87	0x3d659639	0.056051467
88	0x3e165f73	0.14684848
89	0x3d1e5346	0.038653634
90	0x3d9c4963	0.07631185
91	0x3dd0bc0d	0.10192118
92	0x3da0a3b7	0.07843726
93	0x3cce7067	0.025200082
94	0x3ea3cbde	0.31991476
95	0x3d9b5a50	0.07585585
96	0x3cb3ef4b	0.02196469
97	0x3ec14a20	0.37751865
98	0x3e555741	0.20834066
99	0x3d99e910	0.07515156
100	0x3d625477	0.055256333
101	0x3e96fc8b	0.2948955
102	0x3e712ed3	0.23553018
103	0x3e8b7e3c	0.27244747
104	0x3e4bc0da	0.19897786
105	0x3e868e09	0.2628024
106	0x3d9cce28	0.07656509
107	0x3ded3b7b	0.115836106
108	0x3ea1f82b	0.3163465
109	0x3cd3b873	0.025844788
110	0x3e5fdb90	0.218611
111	0x3e8d2694	0.27568495
112	0x3d9f436d	0.07776532
113	0x3d8a3904	0.06749156
114	0x3e8ddeea	0.27709132
115	0x3e63c00f	0.22241233
116	0x3df2580a	0.11833198
117	0x3de14bcb	0.110007845
118	0x3e95fd5b	0.29294857
119	0x3e1a9eb8	0.15099609
120	0x3e85db00	0.26143646
121	0x3d807a78	0.06273359
122	0x3da34874	0.07972804
123	0x3e0bbd31	0.1364639
124	0x3d387eca	0.04504279
125	0x3e8d4219	0.2758949
126	0x3c354884	0.011064652
127	0x3dab187b	0.08354279
128	0x3eae8047	0.34082243
129	0x3e81ff81	0.25390247
130	0x3ec6ee6a	0.3885377
131	0x3d615f8c	0.05502276
132	0x3e01c4dc	0.12672752
133	0x3e1bdeb4	0.15221673
134	0x3e0dce65	0.13848265
135	0x3e043f24	0.12914711
136	0x3e8f24b5	0.27957693
137	0x3eb4bfbf	0.3530254
138	0x3d8c067d	0.06837175
139	0x3e111f0c	0.14172
140	0x3ca5893e	0.020207044
141	0x3e1553ab	0.14582698
142	0x3da4da89	0.08049495
143	0x3cb2ce47	0.021826876
144	0x3d17e502	0.037083633
145	0x3ea79659	0.32731894
146	0x3de79c73	0.11309137
147	0x3e9b8e87	0.30382177
148	0x3d08d27d	0.033403862
149	0x3e636c97	0.22209392
150	0x3d6ce148	0.057832032
151	0x3e8cce1a	0.27500993
152	0x3e5e4621	0.2170644
153	0x3dad9381	0.084754
154	0x3e2327b4	0.15933114
155	0x3e4bfef4	0.19921476
156	0x3e36add6	0.1783975
157	0x3e079458	0.13240182
158	0x3d16f35b	0.036853176
159	0x3d44f98e	0.048089556
160	0x3e9ce2ab	0.30641684
161	0x3e23ac57	0.15983711
162	0x3e26b0c2	0.16278365
163	0x3e20cf68	0.15704119
164	0x3e2edf8f	0.17077468
165	0x3e260971	0.16214539
166	0x3e0722f6	0.1319693
167	0x3e56feb5	0.209956
168	0x3d401b03	0.04690076
169	0x3e0cae2a	0.13738313
170	0x3eabe9ef	0.33576915
171	0x3eb78016	0.3583991
172	0x3d9b458d	0.07581625
173	0x3e25f4fc	0.16206735
174	0x3db1b987	0.08677965
175	0x3df7a97e	0.12092875
176	0x3e9f8adb	0.31160626
177	0x3e9e6c57	0.30942032
178	0x3dc5f3ae	0.09665619
179	0x3e7ce6ce	0.2469742
180	0x3e8ed168	0.2789414
181	0x3d85ad1c	0.065271586
182	0x3dd32075	0.10308925
183	0x3e908e9e	0.28233808
184	0x3cbf3644	0.023341306
185	0x3e91dd28	0.2848904
186	0x3e5eb8e6	0.2175022
187	0x3e68f8cb	0.22751157
188	0x3d53d264	0.051714316
189	0x3c475d9b	0.012168313
190	0x3e090d6c	0.13384026
191	0x3e155b28	0.14585555
192	0x3e9558c9	0.291693
193	0x3e3070d0	0.17230535
194	0x3dbf52f9	0.09341998
195	0x3ec08d5c	0.3760785
196	0x3db47a9e	0.0881245
197	0x3d45b598	0.048268884
198	0x3dbab006	0.09115605
199	0x3d04b59c	0.03239976
200	0x3ebe8ca0	0.37216663
201	0x3e394556	0.18092856
202	0x3d950264	0.072758466
203	0x3daabf45	0.08337263
204	0x3d9b9923	0.07597568
205	0x3e16ce68	0.14727175
206	0x3e340361	0.17579414
207	0x3d8fe955	0.070269264
208	0x3cf0c0de	0.029388841
209	0x3e92dd1a	0.28684312
210	0x3c77e015	0.015129109
211	0x3c223ab3	0.00990169
212	0x3d6de960	0.058083892
213	0x3db25a93	0.08708682
214	0x3d1758cc	0.036949918
215	0x3e0f2c50	0.13981748
216	0x3d0cb5e7	0.034353163
217	0x3df7953a	0.120890096
218	0x3e48e23e	0.19617555
219	0x3dbb680a	0.09150703
220	0x3dc5c9e2	0.09657647
221	0x3d4faea3	0.050703656
222	0x3d33dc56	0.0439113
223	0x3da83cd2	0.082147256
224	0x3d840d54	0.06447855
225	0x3c996bcf	0.018728165
226	0x3df680f2	0.12036313
227	0x3e1b9c4e	0.15196344
228	0x3ec22105	0.37915817
229	0x3e012134	0.12610322
230	0x3deffeca	0.11718519
231	0x3d402610	0.0469113
232	0x3e0ac9b8	0.13553512
233	0x3e6125ad	0.21987028
234	0x3de2b8a8	0.11070377
235	0x3eaa85d9	0.33305243
236	0x3e1a971b	0.15096705
237	0x3e9d94ca	0.3077758
238	0x3e10be16	0.14135012
239	0x3e44c0a9	0.19214119
240	0x3ea28ab5	0.3174645
241	0x3d16f907	0.036858585
242	0x3e6c536c	0.23078698
243	0x3d382898	0.04496059
244	0x3c69ea19	0.014277005
245	0x3deab12e	0.114595756
246	0x3e9cdb48	0.30636048
247	0x3e0c5c76	0.13707146
248	0x3e6af81f	0.22946213
249	0x3eab2bf6	0.33431977
250	0x3e848f56	0.25890607
251	0x3dc4be05	0.09606556
252	0x3ddd1a63	0.107960485
253	0x3dd77059	0.105194755
254	0x3ebb922f	0.36634967
255	0x3ed82f1b	0.4222344

layers.2.batchnorm.running_var f4 [512]
0	0x3cf79ddd	0.030226642
1	0x3e41223d	0.18860717
2	0x3da40327	0.08008414
3	0x3c4d9c38	0.0125494525
4	0x3de2d5a3	0.11075904
5	0x3da00f15	0.07815377
6	0x3d26a095	0.040680487
7	0x3d39ab42	0.04532934
8	0x3e12abcc	0.14323348
9	0x3cc0aca7	0.023519827
10	0x3d02dee2	0.03195084
11	0x3d94b517	0.07261103
12	0x3c8b32c6	0.016991984
13	0x3d06e886	0.032936595
14	0x3d93a78f	0.07209694
15	0x3dcc02e4	0.09961489
16	0x3d4c9890	0.049950182
17	0x3dc91b5e	0.09819673
18	0x3d1b92b0	0.03798169
19	0x3e22a40f	0.15882896
20	0x382a837e	4.065362e-05
21	0x3d9356fc	0.07194325
22	0x3dcbff3e	0.09960793
23	0x3d06129d	0.032732595
24	0x3de1c5f7	0.11024087
25	0x3d9de541	0.07709742
26	0x3d36daf8	0.04464242
27	0x3ceda83d	0.029010886
28	0x3cdd995d	0.027050668
29	0x3deeb20f	0.11655056
30	0x3c3034dd	0.010754791
31	0x3c8b9c1e	0.017042216
32	0x3d7b6030	0.06137103
33	0x3d7a91da	0.06117425
34	0x3b76feb6	0.003768844
35	0x3cde4d03	0.027136331
36	0x3c80b585	0.015711555
37	0x3bea3d7c	0.007148443
38	0x3e25268b	0.16127984
39	0x3d075b1f	0.033045884
40	0x3d388f1b	0.04505835
41	0x3bcde7a8	0.006283719
42	0x3c8e8753	0.017398512
43	0x3c3f44a2	0.011674078
44	0x3cbe5625	0.023234436
45	0x3c1d4392	0.00959863
46	0x3b8463ff	0.004040241
47	0x3c2a9ca6	0.010413324
48	0x3d16fd5c	0.036862716
49	0x3da8c5ff	0.0824089
50	0x3da94e40	0.08266878
51	0x3cce7f78	0.025207266
52	0x3d87ae2f	0.0662502
53	0x3e17fe05	0.14842995
54	0x3c21d2d2	0.009876924
55	0x3d1f7c38	0.038936824
56	0x3d47f194	0.04881437
57	0x3b19586f	0.0023398658
58	0x3c718a86	0.014742499
59	0x3d0ea21b	0.034822565
60	0x3da64bc9	0.081199236
61	0x3caeb2a5	0.021325419
62	0x3d467f7a	0.048461415
63	0x3cda5293	0.026650703
64	0x3d945ba4	0.072440416
65	0x3c23bad7	0.009993277
66	0x3c95e95e	0.018299755
67	0x3dc69116	0.09695642
68	0x3c872df3	0.016501402
69	0x3e1d9738	0.15389717
70	0x3c4d99d4	0.0125488825
71	0x3cfc7373	0.03081677
72	0x3cc04fdd	0.023475582
73	0x3e02442b	0.12721317
74	0x3cc63703	0.024196154
75	0x3d6e8c69	0.058239374
76	0x3c829f8a	0.015945215
77	0x3e287063	0.16449122
78	0x3df0c05b	0.11755439
79	0x3d9e1e72	0.07720651
80	0x3d21983f	0.039451834
81	0x3dbbc52d	0.09168468
82	0x3c2e47cc	0.010637235
83	0x3d3a0541	0.045415167
84	0x3cf65af8	0.030072674
85	0x3cad0397	0.021119876
86	0x3dc4eb9d	0.09615252
87	0x3cf93c34	0.030424215
88	0x3d64e416	0.055881582
89	0x3c13d9da	0.009024108
90	0x3cd12b83	0.025533443
91	0x3d3173d4	0.043323353
92	0x3cbd91a2	0.023140732
93	0x3b91fa7d	0.0044549094
94	0x3dd69ab9	0.1047873
95	0x3cd9e807	0.026599897
96	0x3c0df0f0	0.008663401
97	0x3e22d3e7	0.15901147
98	0x3d968e15	0.07351319
99	0x3cd80391	0.026368888
100	0x3c85e8bb	0.016346326
101	0x3e086eb0	0.13323474
102	0x3dbf21d3	0.09332623
103	0x3d45d840	0.048301935
104	0x3d79d080	0.060989857
105	0x3d840a52	0.06447281
106	0x3cd9d675	0.026591519
107	0x3d322d91	0.043500487
108	0x3e4166a9	0.18886818
109	0x3b754866	0.0037427186
110	0x3d8e1342	0.06937267
111	0x3db23910	0.0870229
112	0x3d4e139a	0.050311662
113	0x3c916582	0.017748598
114	0x3da6509c	0.08120844
115	0x3dcc65e5	0.09980372
116	0x3d7de00f	0.061981257
117	0x3d1c91bf	0.03822493
118	0x3dda4869	0.106583424
119	0x3dd8e29d	0.10590098
120	0x3e0fd771	0.14047028
121	0x3ce52d77	0.02797578
122	0x3c5695ed	0.0130972685
123	0x3d453e39	0.048155043
124	0x3c0793aa	0.008274952
125	0x3e35e9b2	0.17764929
126	0x3ac06114	0.0014677369
127	0x3c9e67cc	0.019336604
128	0x3e4a02e7	0.1972767
129	0x3dd863bd	0.105658986
130	0x3dd610fa	0.10452457
131	0x3c8dfa50	0.017331272
132	0x3d887460	0.06662822
133	0x3d976da5	0.0739396
134	0x3db25ec4	0.08709481
135	0x3dc86afa	0.09786029
136	0x3de476be	0.11155461
137	0x3e4049f9	0.18778218
138	0x3cfb8ddf	0.030707298
139	0x3d725219	0.059160326
140	0x3bb6a2ef	0.0055736224
141	0x3d97565b	0.07389518
142	0x3d20a747	0.039222028
143	0x3b98fa1f	0.0046684886
144	0x3c13615d	0.008995381
145	0x3dac192b	0.08403238
146	0x3d076883	0.033058655
147	0x3e16c08b	0.14721887
148	0x3bc821e4	0.0061075557
149	0x3e108f2b	0.14117114
150	0x3c53589c	0.012899544
151	0x3dd0ddc1	0.10198546
152	0x3d9f6c2a	0.077843025
153	0x3ce8546c	0.028360568
154	0x3d34c2cb	0.04413108
155	0x3dbd66a8	0.09248096
156	0x3d54bd0e	0.05193811
157	0x3d28a1ab	0.041169804
158	0x3c7b8382	0.015351178
159	0x3c8957a1	0.016765418
160	0x3e18435a	0.14869443
161	0x3d352a8f	0.04423004
162	0x3d8e4af9	0.06947894
163	0x3d5fedf8	0.054670304
164	0x3d7a8620	0.061163068
165	0x3d50818c	0.050904796
166	0x3da21214	0.079136044
167	0x3dafa1d8	0.08575791
168	0x3c2a793e	0.010404883
169	0x3d597191	0.05308682
170	0x3dcd4d85	0.10024551
171	0x3e02407f	0.12719916
172	0x3cca8bf1	0.024724932
173	0x3d910c13	0.07082381
174	0x3cf4a577	0.029864056
175	0x3d26a2e2	0.04068268
176	0x3dfb7362	0.12277867
177	0x3df533d9	0.1197278
178	0x3d0a3020	0.0337373
179	0x3dc7fc3f	0.09764909
180	0x3d8d49f7	0.06898873
181	0x3c8b0a7d	0.016972775
182	0x3d0a1166	0.033708
183	0x3ddab3f9	0.10678858
184	0x3bd6d451	0.006556072
185	0x3e3192ed	0.17341204
186	0x3dc6c69d	0.09705851
187	0x3da00dd8	0.078151405
188	0x3c353616	0.011060258
189	0x3b0e4ec9	0.002171444
190	0x3d328571	0.04358429
191	0x3ddc0608	0.10743338
192	0x3de424be	0.111398205
193	0x3d3bf6bd	0.045889605
194	0x3d024f86	0.03181412
195	0x3e3a98ed	0.18222399
196	0x3d1e9688	0.038717777
197	0x3c5d4c6d	0.013506991
198	0x3cc51bfa	0.024061192
199	0x3bf73b12	0.0075448835
200	0x3e1531a8	0.14569724
201	0x3dbf04e4	0.09327105
202	0x3c708ec2	0.014682474
203	0x3d1059e0	0.03524196
204	0x3ca43a2d	0.020047272
205	0x3da6d15f	0.08145403
206	0x3da2d024	0.07949856
207	0x3cb6158b	0.02222707
208	0x3c2c1f0b	0.010505448
209	0x3d8484a3	0.06470611
210	0x3b89e809	0.004208569
211	0x3abd2f72	0.0014433695
212	0x3c83df17	0.016097588
213	0x3d2dfde6	0.042478465
214	0x3c831d65	0.016005227
215	0x3da838a0	0.08213925
216	0x3c51a806	0.012796408
217	0x3d51aa6b	0.051187914
218	0x3d7bcd38	0.06147501
219	0x3d3855db	0.045003753
220	0x3d32c0fd	0.04364108
221	0x3cb61efc	0.022231571
222	0x3c3b049c	0.011414673
223	0x3d1917b6	0.037376128
224	0x3cfd1a5c	0.030896358
225	0x3b86b643	0.0041110828
226	0x3d38e839	0.04514334
227	0x3d15ed38	0.036603183
228	0x3e42d15e	0.1902518
229	0x3d2a0cb1	0.04151601
230	0x3d3cf6c7	0.046133783
231	0x3c8cee1c	0.017203383
232	0x3d14053e	0.03613781
233	0x3da3576b	0.07975658
234	0x3d39880d	0.045295764
235	0x3e02c24a	0.12769428
236	0x3d68a19d	0.05679475
237	0x3e48a5f7	0.1959456
238	0x3db5758b	0.0886031
239	0x3db55bfc	0.08855435
240	0x3e506b04	0.20353323
241	0x3c6c1808	0.014410026
242	0x3db5e6dc	0.088819236
243	0x3ca5936e	0.020211902
244	0x3b48123c	0.0030528447
245	0x3cf85b4f	0.030316977
246	0x3e6f826a	0.23389593
247	0x3d1b587f	0.037926193
248	0x3d4afedc	0.04955946
249	0x3e05f108	0.13080227
250	0x3dab1cdb	0.08355113
251	0x3ce4c494	0.027925767
252	0x3d893c0e	0.06700908
253	0x3d1df9a0	0.03856814
254	0x3e34cade	0.17655513
255	0x3dd7b489	0.10532481
